cnmp_model.pt (torch, 410274 bytes, 16 tensors)

encoder.0.weight f4 [128, 5]
0.34604383 0.38603497 -0.10306295 0.49496272 -0.09753017 0.09024354 -0.21772818 0.26264077
0.39423797 -0.3280885 0.39610592 0.09830612 0.34319252 0.06742077 0.22697586 -0.057652224
0.36295885 0.07740385 -0.20125246 0.12392861 -0.20604768 -0.052446015 -0.18163952 0.2966685
-0.35301706 -0.20617008 -0.12628183 -0.2688972 0.042209413 -0.44170353 0.41364035 -0.36938503
0.36011457 0.07070212 -0.13161197 0.27953306 0.07960059 0.36845458 0.048599213 -0.13512604
0.119846955 -0.10610579 0.19366321 0.41680315 0.2623674 -0.1955095 0.2581606 0.080018245
0.22711073 -0.27257895 -0.44839 -0.16570324 -0.33690685 0.38640535 0.13571686 0.18524192
0.1414363 -0.0077797156 0.34999305 -0.31775135 0.035334874 -0.28449273 0.15078619 -0.14689063
0.14843932 -0.09317314 0.3709153 -0.26506436 -0.26671728 -0.26673338 0.40645376 0.16298904
0.43987212 -0.3599314 -0.43546522 -0.34689197 -0.27904597 0.19142097 0.17280102 0.38044998
-0.23289227 -0.2977795 0.24055918 -0.16862196 0.27344143 -0.106124066 0.2558267 -0.34747064
-0.22568624 0.1363449 0.1179202 -0.13344507 0.29820558 0.29564536 -0.29542243 -0.23875311
0.40949646 -0.1509044 -0.15854454 -0.43272147 -0.2561059 0.11171559 -0.059029143 -0.3246261
0.010490152 -0.30548334 -0.37941453 -0.24626382 -0.39140674 -0.2847579 0.44703868 0.08446745
0.13781321 -0.4171091 -0.29371816 -0.14885765 0.06993129 -0.3935128 -0.19269228 -0.2677327
0.0012393444 -0.16640961 -0.030990008 -0.3030452 -0.30696526 -0.2609052 -0.15308006 -0.35297713
0.37497512 -0.088755816 0.38515902 0.13845891 -0.37839898 0.3209675 -0.12197231 -0.17142862
-0.3712188 -0.44460216 0.12795256 -0.09769107 0.18042101 -0.35026062 0.3441728 -0.3177653
-0.06668379 0.09340937 0.23087482 0.36104015 0.40739337 -0.35460556 0.10062492 -0.18945006
-0.05711307 -0.33903074 0.39888164 -0.31728703 0.2512929 0.1738269 0.14713301 -0.22607808
0.4098483 0.10511331 0.06529983 -0.3938305 0.19447577 -0.061601404 -0.18466075 0.3962557
0.11466964 -0.23696204 -0.2263522 -0.021357005 0.24970676 -0.1142782 -0.25516886 -0.16673659
-0.32087442 0.14568155 0.35169604 -0.43475777 0.10944463 0.25060654 0.092522845 -0.14929534
0.24340354 0.21100923 0.19110823 -0.10255765 -0.09246024 0.023827128 -0.07900211 -0.13327011
0.285862 0.38433516 -0.044272963 -0.09467278 0.01588836 -0.015299642 0.114237465 0.13588808
-0.40175357 -0.14783235 0.38706708 0.1863321 -0.0133383805 -0.26962763 -0.27360755 -0.40059912
-0.14577483 0.1510259 0.28515306 0.20647733 -0.39531177 -0.26893747 -0.07057775 0.4261861
0.06854128 -0.12098222 0.2194108 -0.17689756 -0.28946152 0.3264155 -0.20334882 -0.08965146
-0.44489 0.3093664 0.35585287 0.17793824 -0.31090337 -0.42761612 -0.3455117 0.34014785
0.23217343 0.32130817 0.25089827 0.113186255 -0.004379422 -0.34010863 -0.38316017 -0.41830063
0.18307222 -0.21956755 -0.09000289 -0.25737378 -0.08149285 -0.32160902 -0.28750584 0.14914045
-0.101568535 0.2748238 -0.14347003 -0.32806125 -0.07890589 -0.21678562 -0.13682124 -0.42913112
00000000: a82c b13e 60a6 c53e ab12 d3bd c16b fd3e
00000010: e6bd c7bd 9bd1 b83d 23f4 5ebe da78 863e
00000020: 8fd9 c93e 37fb a7be 65ce ca3e b854 c93d
00000030: eeb6 af3e e713 8a3d 5c6c 683e bd24 6cbd
00000040: bed5 b93e e985 9e3d 2015 4ebe 48ce fd3d
00000050: 2afe 52be a2d1 56bd b6ff 39be efe4 973e
00000060: a7be b4be 401e 53be 0650 01be e5ac 89be
00000070: c7e3 2c3d f726 e2be abc8 d33e 0920 bdbe
00000080: f060 b83e 46cc 903d 4ac5 06be f51e 8f3e
00000090: a205 a33d 14a6 bc3e f80f 473d 7b5e 0abe
000000a0: 5272 f53d fe4d d9bd a64f 463e 3967 d53e
000000b0: 0555 863e a433 48be a02d 843e 9be0 a33d
000000c0: b78f 683e 788f 8bbe 6093 e5be 1cae 29be
000000d0: 0e7f acbe ecd6 c53e 5cf9 0a3e 0fb0 3d3e
000000e0: add4 103e fcec febb 4a32 b33e 4eb0 a2be
000000f0: 4dbb 103d 08a9 91be b267 1a3e 7f6a 16be
00000100: 7a00 183e 8fd1 bebd 9ce8 bd3e 84b6 87be
00000110: 2b8f 88be 4791 88be b51a d03e 99e6 263e
00000120: eb36 e13e ee48 b8be 4cf5 debe d39b b1be
00000130: 1ddf 8ebe dc03 443e c0f2 303e 57ca c23e
00000140: 507b 6ebe 8e76 98be 2555 763e 3cab 2cbe
00000150: 8400 8c3e 9357 d9bd b8fb 823e ace7 b1be
00000160: 4b1a 67be ff9d 0b3e 2580 f13d d3a5 08be
00000170: 67ae 983e d45e 973e 9c41 97be b27b 74be
00000180: 85a9 d13e af86 1abe 8059 22be ab8d ddbe
00000190: 5020 83be 25cb e43d 8bc8 71bd 6435 a6be
000001a0: e3de 2b3c 5068 9cbe 9f42 c2be 952c 7cbe
000001b0: 7766 c8be cacb 91be 41e2 e43e 45fd ac3d
000001c0: e81e 0d3e 538f d5be 3a62 96be 246e 18be
000001d0: 2338 8f3d 827a c9be 2051 45be 4314 89be
000001e0: 7f71 a23a 4867 2abe c2de fdbc be28 9bbe
000001f0: 8d2a 9dbe 5e95 85be 05c1 1cbe 6bb9 b4be
00000200: bdfc bf3e 9cc5 b5bd 9033 c53e 2cc8 0d3e
00000210: 83bd c1be da55 a43e 9ecc f9bd fc8a 2fbe
00000220: 6410 bebe e5a2 e3be ff05 033e 4112 c8bd
00000230: 49c0 383e 5c55 b3be 6b37 b03e 22b2 a2be
00000240: 8391 88bd 694d bf3d 736a 6c3e 41da b83e
00000250: dd95 d03e dc8e b5be 7014 ce3d 32ff 41be
00000260: 65ef 69bd 7095 adbe 373a cc3e 7273 a2be
00000270: 77a9 803e aeff 313e 09aa 163e 0381 67be
00000280: a3d7 d13e a645 d73d ebbb 853d 27a4 c9be
00000290: a824 473e c151 7cbd b517 3dbe 07e2 ca3e
000002a0: ebd7 ea3d 2da6 72be dfc8 67be e3f4 aebc
000002b0: 21b3 7f3e b00a eabd 7ea5 82be ffbc 2abe
000002c0: a749 a4be 8b2d 153e 8111 b43e 9298 debe
000002d0: 8224 e03d 804f 803e 9e7c bd3d e1e0 18be
000002e0: c73e 793e ce12 583e e0b1 433e bf09 d2bd
000002f0: cb5b bdbd 1c31 c33c dccb a1bd f677 08be
00000300: 815c 923e 94c7 c43e 9157 35bd cde3 c1bd
00000310: 4e28 823c 5aab 7abc 55f5 e93d 3f26 0b3e
00000320: a5b2 cdbe 5d61 17be a82d c63e d8cd 3e3e
00000330: 3989 5abc a20c 8abe 4a16 8cbe 541b cdbe
00000340: ff45 15be 89a6 1a3e 95ff 913e cb6e 533e
00000350: 4e66 cabe 2cb2 89be 118b 90bd 1135 da3e
00000360: 5f5f 8c3d 87c5 f7bd 3aad 603e a224 35be
00000370: 4d34 94be ef1f a73e ac3a 50be 2f9b b7bd
00000380: 9fc8 e3be 4665 9e3e 5932 b63e 7135 363e
00000390: ba2e 9fbe 80f0 dabe e9e6 b0be dc27 ae3e
000003a0: dfbe 6d3e 8182 a43e bd75 803e 32ce e73d
000003b0: 4181 8fbb b822 aebe 922d c4be 802b d6be
000003c0: 4977 3b3e 51d6 60be 6f53 b8bd 7fc6 83be
000003d0: b9e5 a6bd f0a9 a4be f733 93be 46b8 183e
000003e0: 2a03 d0bd b5b5 8c3e cfe9 12be a5f7 a7be
000003f0: 6999 a1bd 0dfd 5dbe de1a 0cbe 13b7 dbbe

encoder.0.bias f4 [128]
0.095361315 -0.41898355 0.39942992 0.28817677 -0.43779787 -0.21360397 0.15710784 -0.08830548
-0.047353387 -0.20192395 0.36378986 -0.24999161 0.37988845 0.028855234 0.09571132 0.35535684
-0.074003324 -0.25461808 -0.04660726 0.3627141 -0.33182684 0.101508744 -0.43951768 0.23447503
0.16523099 0.018958392 0.19193538 0.0005029989 0.25555497 -0.35402346 -0.07612256 0.21120189
0.44992346 0.23584506 -0.3252023 0.33019423 -0.09207996 -0.11949587 -0.40647677 -0.062809795
0.3227906 0.06236162 -0.26048133 0.13043065 -0.14339653 0.41992894 -0.3749115 -0.14126383
-0.43181762 -0.18035659 0.14098303 0.4352266 0.077922255 0.44475567 0.09479944 0.25828195
0.36977565 0.36999637 -0.25031605 0.40703475 0.27090654 -0.23929551 -0.20911148 -0.36635152
0.12609453 -0.36248866 0.18869473 0.15230076 -0.38854015 0.1263224 -0.046408683 0.21137586
0.25660652 -0.44459516 0.4156839 0.38957426 0.18194707 -0.4087358 -0.16082065 -0.12960647
-0.11493297 0.24980697 0.16872287 0.36435008 -0.16749185 0.14828373 0.15911642 -0.36242834
-0.44018978 -0.23205425 0.2836247 -0.42103356 -0.403823 0.25116932 0.2512604 0.3486508
-0.33761886 -0.31419417 0.23660195 0.39999765 0.25874376 0.07286077 0.15203407 0.434503
-0.27908996 -0.19597825 0.32425976 -0.3354739 -0.23055422 0.33811447 0.12959448 0.15303864
-0.18954718 -0.006171772 0.42058778 -0.26842657 0.0099327415 0.2217624 -0.3087367 0.42839324
-0.22343263 -0.09217216 -0.11159546 -0.2914307 -0.43883485 0.26472345 0.13322258 -0.4188606
00000000: cb4c c33d 0385 d6be 1482 cc3e e88b 933e
00000010: 0b27 e0be 00bb 5abe e1e0 203e 81d9 b4bd
00000020: a0f5 41bd 27c5 4ebe aa42 ba3e cdfd 7fbe
00000030: bd80 c23e d061 ec3c 4c04 c43d 55f1 b53e
00000040: 0e8f 97bd 4d5d 82be 41e7 3ebd aab5 b93e
00000050: 35e5 a9be d1e3 cf3d 7608 e1be 391a 703e
00000060: 5032 293e a14e 9b3c b58a 443e afdb 033a
00000070: 1ad8 823e 9042 b5be 25e6 9bbd 4f45 583e
00000080: 5e5c e63e 5e81 713e ea80 a6be 380f a93e
00000090: 6b94 bcbd 40ba f4bd b91d d0be 6ca2 80bd
000000a0: cf44 a53e e66e 7f3d cf5d 85be 9d8f 053e
000000b0: 8ad6 12be ed00 d73e 66f4 bfbe 77a7 10be
000000c0: 3317 ddbe 66af 38be db5d 103e 05d6 de3e
000000d0: b495 9f3d 04b7 e33e 3526 c23d 883d 843e
000000e0: 3c53 bd3e 2a70 bd3e 6d29 80be dc66 d03e
000000f0: 43b4 8a3e e209 75be 5221 56be 6d92 bbbe
00000100: ed1e 013e 1d98 b9be 3139 413e bbf4 1b3e
00000110: bcee c6be a95a 013e 0817 3ebd ea72 583e
00000120: ee61 833e faa1 e3be 85d4 d43e 4776 c73e
00000130: 5550 3a3e d245 d1be 2bae 24be 8fb7 04be
00000140: fa61 ebbd 66cd 7f3e b0c5 2c3e 188c ba3e
00000150: fc82 2bbe b1d7 173e 6aef 223e 3590 b9be
00000160: 8e60 e1be a19f 6dbe 4237 913e b691 d7be
00000170: e3c1 cebe 4499 803e 34a5 803e 5c82 b23e
00000180: 61dc acbe 0fde a0be c847 723e 7ecc cc3e
00000190: 107a 843e 0738 953d d2ae 1b3e 2d77 de3e
000001a0: e1e4 8ebe 86ae 48be 6005 a63e 3cc3 abbe
000001b0: 6816 6cbe 571d ad3e 6ab4 043e 29b6 1c3e
000001c0: a818 42be 933c cabb 4857 d73e 356f 89be
000001d0: f0bc 223c af15 633e bd12 9ebe 5c56 db3e
000001e0: 86cb 64be c2c4 bcbd 298c e4bd 6836 95be
000001f0: f6ae e0be d589 873e 806b 083e e674 d6be

encoder.2.weight f4 [128, 128]
-0.08601114 0.08736022 0.042154748 0.043612685 -0.05288258 -0.038749106 -0.0053232014 -0.0065978295
-0.05077939 0.0072818687 0.017605528 -0.011191822 0.02022098 -0.035032775 0.030347025 0.042683236
-0.0356018 -0.08764403 0.07099259 0.021083865 -0.04495325 0.08518002 -0.03997345 0.059728142
0.044841927 -0.07410551 0.05457148 -0.081270695 -0.040919337 -0.014735655 -0.051427387 0.09567575
-0.010440777 0.044367433 -0.07892301 0.060216125 -0.018230092 -0.058492552 0.012924405 0.055961777
0.08666147 -0.05398695 -0.043496285 0.016238818 0.02397633 0.03903849 0.06836185 -0.020042386
0.049105883 0.08175246 -0.02308894 0.06933324 0.051704753 0.0800825 -0.041132513 -0.043646958
-0.024881845 0.013709008 0.053050596 -0.05043482 0.04425198 -0.023299908 0.051476676 0.008322275
-0.06295712 -0.048635323 -0.06220066 0.054354988 -0.059268646 0.0010272404 0.015548856 -0.04026608
0.025497388 -0.08630445 -0.08276851 -0.072610654 -0.018794604 -0.032199644 0.025111472 -0.016344285
0.041549776 0.074837774 0.041457828 -0.028768364 -0.08276558 0.036514122 -0.043792702 0.051129784
0.08283043 0.034093197 0.084956855 0.08395094 0.020977242 -0.05676854 0.086811244 -0.04289581
-0.04175055 0.09398079 0.07612173 0.035344627 0.014512224 -0.08029481 -0.0029951108 0.0880802
0.039420214 0.019589042 -0.0104285795 -0.016697751 0.074176684 0.014417136 0.055386227 -0.0057252967
0.03861768 0.03648405 0.021051742 0.055540852 0.06302635 0.08911157 0.06795084 -0.016692195
-0.07483136 0.030941276 0.015255881 -0.023053925 -0.014801046 0.013066396 0.07654575 0.027554292
-0.0313862 -0.036347494 -0.021887721 -0.034162357 0.07948082 0.046814475 0.07981253 0.00028227852
0.017825356 0.030649956 -0.08366426 0.007892777 -0.0059122965 -0.049555283 -0.0685847 0.07824794
0.07186556 0.04096523 0.08434456 -0.035868686 -0.015266674 0.03346547 -0.014604104 -0.017344872
-0.0730584 0.023746524 -0.05341548 0.0032143504 0.08617648 -0.027207287 -0.027859278 0.053325824
-0.032496262 -0.007590563 0.0825316 -0.0362369 -0.06323393 -0.049465984 -0.024505284 -0.04194016
-0.045867518 0.035703987 0.015020515 -0.028289713 -0.068669915 -0.027829943 -0.037303343 -0.028763242
-0.07973716 0.019041419 -0.064941004 -0.06883677 -0.07221621 0.03689185 -0.053212143 -0.036482364
0.06928238 0.04693105 0.0506811 -0.083925314 -0.06338327 -0.033367574 0.0730174 0.009042163
-0.066105396 0.00055347243 -0.06864865 -0.019365823 -0.024304591 0.0765144 0.027377117 -0.015412375
0.014931332 -0.02551467 0.03472781 0.034963235 0.023736347 -0.034451738 0.07540858 -0.012760622
-0.034411058 0.055358864 0.07204151 0.08796053 0.026185784 -0.030131046 0.044891734 0.07583318
-0.08669431 -0.010950162 -0.0602778 0.01647203 0.03655608 -0.018259963 -0.0073943166 0.039784547
-0.014855404 -0.07422672 0.07072269 -0.044487137 -0.009710212 0.008337352 -0.005311862 -0.08314568
0.040552568 -0.040148772 -0.045843463 0.02111734 -0.046126522 -0.040849525 -0.029782448 -0.03320552
-0.036914285 -0.023837088 0.02296999 -0.07152543 -0.053499725 0.0012897146 0.012292001 0.04881622
-0.06208786 0.02821329 0.05023903 0.049078528 -0.08232681 -0.033729363 -0.07597558 -0.055933155
00000000: 9c26 b0bd eae9 b23d 75aa 2c3d 37a3 323d
00000010: 679b 58bd 62b7 1ebd 406e aebb 9b32 d8bb
00000020: 0dfe 4fbd be9c ee3b 7839 903c e75d 37bc
00000030: 78a6 a53c 877e 0fbd 539a f83c 9ed4 2e3d
00000040: 31d3 11bd b77e b3bd 9064 913d 12b8 ac3c
00000050: e620 38bd dd72 ae3d 33bb 23bd 7fa5 743d
00000060: 2bac 373d a1c4 97bd 5886 5f3d 4071 a6bd
00000070: 099b 27bd d16d 71bc 86a5 52bd a6f1 c33d
00000080: cb0f 2bbc a0ba 353d 63a2 a1bd 2fa5 763d
00000090: 4657 95bc e395 6fbd e2c0 533c 2d38 653d
000000a0: 927b b13d 6c21 5dbd 2929 32bd 4507 853c
000000b0: 026a c43c d3e6 1f3d 4c01 8c3d ee2f a4bc
000000c0: 4023 493d d56d a73d 0425 bdbc 96fe 8d3d
000000d0: 5dc8 533d 4b02 a43d 917a 28bd 27c7 32bd
000000e0: 03d5 cbbc bf9b 603c 954b 593d be94 4ebd
000000f0: 9041 353d 73df bebc 35d9 523d 275a 083c
00000100: aaef 80bd d535 47bd 1fc6 7ebd 56a3 5e3d
00000110: aec3 72bd 78a4 863a a1c0 7e3c 0cee 24bd
00000120: e6df d03c 63c0 b0bd 8982 a9bd e5b4 94bd
00000130: 24f7 99bc c6e3 03bd 93b6 cd3c 73e4 85bc
00000140: 1930 2a3d 8c44 993d afcf 293d a2ab ebbc
00000150: 0081 a9bd d58f 153d fa5f 33bd 776d 513d
00000160: 00a3 a93d 4fa5 0b3d dcfd ad3d 78ee ab3d
00000170: 77d8 ab3c 2186 68bd 18ca b13d 84b3 2fbd
00000180: a002 2bbd 0079 c03d b6e5 9b3d 87c5 103d
00000190: aec4 6d3c 9b71 a4bd 9f49 44bb 6463 b43d
000001a0: 1777 213d 3379 a03c a2dc 2abc b9c9 88bc
000001b0: f2e9 973d da35 6c3c abdc 623d 459b bbbb
000001c0: 932d 1e3d 4d70 153d b474 ac3c ce7e 633d
000001d0: f613 813d 2080 b63d cf29 8b3d 12be 88bc
000001e0: 2f41 99bd 8f78 fd3c cdf3 793c 96db bcbc
000001f0: 1680 72bc 7014 563c 05c4 9c3d 8ab9 e13c
00000200: d18e 00bd 1ce1 14bd e14d b3bc d4ed 0bbd
00000210: d7c6 a23d 89c0 3f3d c074 a33d c8fe 9339
00000220: 7b06 923c 9e15 fb3c 2b58 abbd b550 013c
00000230: f0bb c1bb 7bfa 4abd 2376 8cbd 7540 a03d
00000240: 402e 933d 28cb 273d d7bc ac3d 0beb 12bd
00000250: 1221 7abc 1713 093d 0d46 6fbc d516 8ebc
00000260: a49f 95bd 1288 c23c 31ca 5abd daa7 523b
00000270: 4b7d b03d d1e1 debc 2439 e4bc 2e6c 5a3d
00000280: cd1a 05bd 42ba f8bb 5406 a93d 256d 14bd
00000290: ca80 81bd d89c 4abd 4ebf c8bc 72c9 2bbd
000002a0: 94df 3bbd 583e 123d 9b18 763c d4bf e7bc
000002b0: d0a2 8cbd 9ffb e3bc 64cb 18bd e4a0 ebbc
000002c0: 3c4d a3bd c0fc 9b3c caff 84bd 4bfa 8cbd
000002d0: 18e6 93bd e91b 173d faf4 59bd 886e 15bd
000002e0: ece3 8d3d c63a 403d fc96 4f3d 09e1 abbd
000002f0: 16cf 81bd 70ac 08bd 268a 953d 9525 143c
00000300: 4462 87bd e816 113a aa97 8cbd 13a5 9ebc
00000310: 6c1a c7bc 95b3 9c3d fa45 e03c 3084 7cbc
00000320: 8ca2 743c 2404 d1bc c03e 0e3d 9c35 0f3d
00000330: ba72 c23c 441d 0dbd d06f 9a3d ee11 51bc
00000340: 9cf2 0cbd fabf 623d 808a 933d a624 b43d
00000350: 9283 d63c 62d5 f6bc 65e0 373d 6d4e 9b3d
00000360: c98c b1bd 4f68 33bc dbe5 76bd 5af0 863c
00000370: d4bb 153d eb95 95bc 064c f2bb 1ff5 223d
00000380: 1564 73bc 2e04 98bd 0fd7 903d 2538 36bd
00000390: 9517 1fbc 6499 083c 210f aebb 4848 aabd
000003a0: 731a 263d 0a73 24bd 5bc6 3bbd 46fe ac3c
000003b0: 2aef 3cbd d551 27bd 52fa f3bc 8302 08bd
000003c0: 6f33 17bd ff45 c3bc 8f2b bc3c ed7b 92bd
000003d0: 8722 5bbd a40b a93a 6464 493c 84f3 473d
000003e0: d74f 7ebd 8f1f e73c 71c7 4d3d 9106 493d
000003f0: f59a a8bd cd27 0abd 1699 9bbd 2a1a 65bd

encoder.2.bias f4 [128]
0.0015460271 -0.057759516 -0.045620244 0.05648644 -0.061463397 -0.04346714 0.045081142 -0.04049649
-0.068367995 0.019643307 0.030324165 -0.08012215 0.01130016 -0.055855203 0.039318636 0.057718627
0.0130114155 0.080312 -0.010151422 -0.042733487 0.0064192023 0.03248423 -0.04550484 -0.06418675
-0.016451012 0.04945957 0.039869495 -0.038912438 0.06701612 -0.065693505 0.0046407543 0.035885565
-0.07392924 0.08817357 -0.034131076 0.066064775 0.003559828 -0.042790253 0.09543398 -0.014502485
0.015732955 0.083135836 -0.08323623 0.06420621 -0.037420064 -0.07173933 0.061750762 -0.027044304
-0.05637175 -0.043334503 0.057135258 0.04576391 0.009560994 0.05883536 0.01755746 -0.066179916
0.016977204 0.06339948 -0.026317844 -0.017917514 0.09606464 -0.025270639 0.07603906 0.07137212
0.085163936 0.035289858 0.038520172 0.022740163 -0.06791702 -0.04180283 -0.049494013 -0.01301305
-0.044209007 -0.017685937 -0.06018105 -0.06427207 0.041659396 0.098274246 -0.041754052 -0.058409747
-0.02971847 -0.03337869 -0.0860791 0.081919014 0.07342462 0.056080487 -0.045677867 -0.05844457
0.098156296 -0.0534726 -0.074263655 -0.07362588 0.032709178 -0.011795701 -0.041151106 0.06602175
-0.0490004 0.018805234 0.04404886 0.05591171 0.08697279 0.0032653117 0.04354023 -0.014364514
0.023584545 -0.03967301 0.07004357 0.008357628 0.011107427 -0.0008037953 0.03140581 -0.08537304
0.07222992 0.07731567 0.047356863 0.006028208 -0.08247585 -0.030433318 -0.06151377 -0.038300313
0.0759023 -0.010197999 0.07442605 -0.051033393 -0.041166198 -0.0615658 0.03366469 0.045692656
00000000: 10a4 ca3a 3e95 6cbd 4bdc 3abd 535e 673d
00000010: 0bc1 7bbd 9a0a 32bd 01a7 383d a6df 25bd
00000020: 8504 8cbd 00eb a03c 626a f83c 1517 a4bd
00000030: 4e24 393c 6dc8 64bd 940c 213d 5e6a 6c3d
00000040: d52d 553c 9e7a a43d 2652 26bc 4f09 2fbd
00000050: 2c58 d23b 2f0e 053d 4863 3abd 5874 83bd
00000060: 46c4 86bc 1e96 4a3d 324e 233d a662 1fbd
00000070: bf3f 893d 518a 86bd 7811 983b befc 123d
00000080: 3768 97bd 5894 b43d 07cd 0bbd f84c 873d
00000090: 014c 693b d544 2fbd e472 c33d d59b 6dbc
000000a0: 66e2 803c 1f43 aa3d c277 aabd 8c7e 833d
000000b0: c845 19bd 12ec 92bd 5eee 7c3d 048c ddbc
000000c0: 10e6 66bd 857f 31bd a906 6a3d f072 3b3d
000000d0: b7a5 1c3c 59fd 703d aad4 8f3c 5689 87bd
000000e0: c713 8b3c 96d7 813d 8598 d7bc c0c7 92bc
000000f0: 8abd c43d 5f04 cfbc 5eba 9b3d 8c2b 923d
00000100: 6e6a ae3d 198c 103d 54c7 1d3d 9449 ba3c
00000110: 1418 8bbd 7239 2bbd 3cba 4abd b034 55bc
00000120: 8114 35bd 19e2 90bc 6880 76bd 13a1 83bd
00000130: 0ba3 2a3d 0244 c93d 4c06 2bbd 0f3f 6fbd
00000140: 2674 f3bc 18b8 08bd 3d4a b0bd 28c5 a73d
00000150: a65f 963d a7b4 653d b718 3bbd 9363 6fbd
00000160: 2b06 c93d 1606 5bbd 8b17 98bd 2ac9 96bd
00000170: 0ffa 053d c242 41bc 108e 28bd 6936 873d
00000180: a5b4 48bd 6f0d 9a3c 946c 343d ad03 653d
00000190: ca1e b23d d7fe 553b 3d57 323d 2359 6bbc
000001a0: 6034 c13c 2b80 22bd 0173 8f3d 6fee 083c
000001b0: edfb 353c cab5 52ba 61a3 003d 0fd8 aebd
000001c0: 48ed 933d ae57 9e3d 45f9 413d 4688 c53b
000001d0: 19e9 a8bd 4b4f f9bc ddf5 7bbd cae0 1cbd
000001e0: aa72 9b3d 8215 27bc af6c 983d 6408 51bd
000001f0: e39d 28bd 6c2c 7cbd fce3 093d 3928 3b3d

encoder.4.weight f4 [128, 128]
0.04559052 0.076447204 0.053142242 -0.079599164 -0.004958703 0.07710381 0.06168423 0.03389973
-0.041502926 -0.07457784 0.083278805 -0.028947225 0.030213937 -0.02204146 -0.0288613 0.032334838
0.07865294 -0.026992474 0.03612551 0.028953005 -0.018862097 0.016961012 0.023372592 0.07292611
-0.032940406 0.06856057 -0.009888019 0.03406643 -0.06676311 0.059405055 0.07606616 0.021680642
-0.0047335825 0.023135735 -0.06973704 -0.0760391 0.06583421 -0.08010587 -0.01797834 -0.060912922
-0.08250766 -0.037510503 -0.00071340916 -0.07756651 -0.06773582 -0.07128764 -0.0007406529 -0.023540342
0.067232735 -0.084612526 -0.07720484 -0.026154194 0.08957371 0.08229904 -0.011428729 -0.024092255
0.012219446 0.00038731433 0.013884951 -0.045890078 -0.0045340434 0.017004661 0.045927074 -0.061956827
-0.01708789 0.044937193 0.059730824 0.047879513 -0.019066073 0.009154497 -0.030254535 0.075068906
0.05021014 -0.07822821 0.042933423 0.08676805 0.02443408 -0.06781166 0.050198022 0.0047321427
-0.023715325 0.03857562 0.06862531 0.03850621 -0.06760008 0.024074977 -0.054542594 -0.08255775
-0.043175526 0.04649557 0.06795314 0.026094146 0.054012243 -0.08433663 -0.04157568 -0.057351097
-0.07509451 -0.05444912 -0.06311068 -0.0719797 0.013811645 -0.03977524 0.0072434945 -0.016773926
0.0076839584 -0.07741354 -0.0713923 -0.08670197 0.065389924 0.0016807348 -0.08176023 -0.03401865
-0.0009110252 -0.05638598 0.0715105 0.06499838 0.021244235 -0.021286178 0.05340218 0.02019328
0.0069497144 0.010899933 -0.07738998 0.01838399 0.03227166 0.054919466 0.04191681 0.076455854
-0.046986435 0.007251734 -0.065091886 0.07588266 -0.004126071 -0.07638291 0.057296257 0.010423643
-0.025477296 0.079075344 -0.046552636 -0.043853246 -0.03034336 0.010124463 -0.06868593 0.019113438
-0.08552648 -0.047640953 -0.051702507 -0.06422267 0.020250475 0.038830586 -0.021612156 -0.026553463
0.0018723316 -0.07164244 -0.08389452 -0.05724997 -0.06407767 0.012465847 0.07133902 0.06306824
-0.054413773 0.049177185 0.07752209 -0.018699704 -0.028821385 -0.08350223 -0.0063688946 -0.034243166
0.022304228 -0.08115212 -0.00846432 0.015545633 -0.021987926 -0.013584941 0.08389704 0.038450304
-0.06577716 -0.040018674 0.040775843 0.038506813 -0.074448064 -0.06041538 -0.036553044 -0.01076185
0.0052841925 0.021788983 -0.041211534 -0.049354095 0.049500704 -0.06895823 -0.015590224 -0.07927572
-0.06724316 0.033028305 -0.00432806 0.07416811 0.087573804 -0.073272 -0.04720763 0.020096775
-0.01112446 -0.08095665 -0.05262601 -0.0474063 0.009190004 0.037553325 0.054224458 0.074745536
-0.046685368 0.06690031 -0.050680753 -0.07593185 -0.038073238 0.04053552 0.014651614 -0.07686165
0.023786353 -0.0034230826 0.0642107 -0.04994686 -0.073309876 -0.005576418 -0.03543332 -0.015030588
-0.023667088 0.08620834 -0.011584514 -0.085515335 -0.052000843 -0.002793946 0.049863525 0.021380274
-0.08720787 0.012900023 0.06310419 -0.028347654 0.04111265 0.073465884 0.07428954 0.014651319
-0.084800325 -0.07556798 0.065444484 -0.028461292 0.075746596 0.056765713 -0.079272576 0.03992001
-0.07344584 -0.06407693 0.062219758 0.079588294 0.042783435 0.041050736 0.010321046 0.057158753
00000000: 20bd 3a3d 5a90 9c3d aeab 593d e304 a3bd
00000010: 9e7c a2bb 9ae8 9d3d 9aa8 7c3d 71da 0a3d
00000020: f9fe 29bd 44bc 98bd 148e aa3d bb22 edbc
00000030: 3883 f73c 4b90 b4bc 886e ecbc 8971 043d
00000040: cb14 a13d 521f ddbc 58f8 133d da2e ed3c
00000050: af84 9abc d2f1 8a3c e177 bf3c 495a 953d
00000060: 85ec 06bd 7c69 8c3d 5c01 22bc 3e89 0b3d
00000070: 19bb 88bd b752 733d 93c8 9b3d 9a9b b13c
00000080: 2b1c 9bbb 2787 bd3c 4bd2 8ebd 63ba 9bbd
00000090: 16d4 863d 8c0e a4bd 5047 93bc d47f 79bd
000000a0: c7f9 a8bd 9da4 19bd 1404 3bba 31db 9ebd
000000b0: 14b9 8abd 41ff 91bd 6028 42ba add7 c0bc
000000c0: 51b1 893d 5549 adbd 921d 9ebd 5241 d6bc
000000d0: 6c72 b73d 668c a83d 903f 3bbc 1f5d c5bc
000000e0: 1234 483c 7310 cb39 b57d 633c 3cf7 3bbd
000000f0: 5092 94bb 5c4d 8b3c 071e 3c3d 71c6 7dbd
00000100: e7fb 8bbc 1010 383d 4fa8 743d 4f1d 443d
00000110: 7430 9cbc befc 153c 5cd8 f7bc babd 993d
00000120: 26a9 4d3d 1d36 a0bd f5da 2f3d 73b3 b13d
00000130: fb29 c83c d7e0 8abd 719c 4d3d 1710 9b3b
00000140: a446 c2bc 7801 1e3d 6d8b 8c3d b0b8 1d3d
00000150: e971 8abd e338 c53c 0e68 5fbd 0a14 a9bd
00000160: d2d8 30bd 2472 3e3d 042b 8b3d 64c3 d53c
00000170: f13b 5d3d afb8 acbd 434b 2abd fce8 6abd
00000180: 27cb 99bd 0a06 5fbd 2c40 81bd 186a 93bd
00000190: 3d4a 623c 5deb 22bd d65a ed3b 7969 89bc
000001a0: b7c9 fb3b fd8a 9ebd 2036 92bd cd90 b1bd
000001b0: 27eb 853d 1a4c dc3a e871 a7bd 2457 0bbd
000001c0: ded1 6eba fcf4 66bd 1974 923d df1d 853d
000001d0: 6408 ae3c 5a60 aebc 3fbc 5a3d 616c a53c
000001e0: 6eba e33b a295 323c a37e 9ebd 059a 963c
000001f0: 4a2f 043d 3cf3 603d f6b0 2b3d e394 9c3d
00000200: d974 40bd f49f ed3b e54e 85bd 5e68 9b3d
00000210: fe33 87bb a56e 9cbd 7baf 6a3d edc7 2a3c
00000220: c3b5 d0bc 41f2 a13d faad 3ebd 769f 33bd
00000230: a392 f8bc 13e1 253c 35ab 8cbd c993 9c3c
00000240: 8228 afbd 2923 43bd 02c6 53bd 2d87 83bd
00000250: 53e4 a53c d20c 1f3d fa0b b1bc a686 d9bc
00000260: 0669 f53a 46b9 92bd e4d0 abbd f27e 6abd
00000270: 273b 83bd 8d3d 4c3c 311a 923d ec29 813d
00000280: fae0 5ebd 046e 493d e7c3 9e3d 1f30 99bc
00000290: d31a ecbc 3803 abbd 29b2 d0bb 9042 0cbd
000002a0: 5bb7 b63c 1533 a6bd eead 0abc 1cb3 7e3c
000002b0: 0620 b4bc 5f93 5ebc 36d2 ab3d 117e 1d3d
000002c0: 2db6 86bd 9fea 23bd 9204 273d 52b9 1d3d
000002d0: 3a78 98bd 1e76 77bd a5b8 15bd 7852 30bc
000002e0: 0527 ad3b cf7e b23c 6dcd 28bd 8527 4abd
000002f0: 40c1 4a3d f939 8dbd 246e 7fbc 4f5b a2bd
00000300: c8b6 89bd b048 073d 66d2 8dbb 73e5 973d
00000310: e559 b33d a10f 96bd ca5c 41bd fea1 a43c
00000320: 5e43 36bc 9acc a5bd 5f8e 57bd 1c2d 42bd
00000330: ac91 163c 84d1 193d 771a 5e3d 3014 993d
00000340: 2839 3fbd 0803 893d 9f96 4fbd 2882 9bbd
00000350: aff2 1bbd 9308 263d 530d 703c a469 9dbd
00000360: 99db c23c cc55 60bb e680 833d 1495 4cbd
00000370: 7d23 96bd 62ba b6bb 8722 11bd db42 76bc
00000380: 7be1 c1bc 008e b03d f9cc 3dbc aa22 afbd
00000390: d6fe 54bd a31a 37bb b23d 4c3d af25 af3c
000003a0: 0a9a b2bd 9e5a 533c c53c 813d 5739 e8bc
000003b0: bd65 283d 4875 963d 1d25 983d 160c 703c
000003c0: cbab adbd 63c3 9abd c207 863d a827 e9bc
000003d0: 0821 9b3d 2a83 683d a959 a2bd 2a83 233d
000003e0: c66a 96bd c43a 83bd 25da 7e3d 30ff a23d
000003f0: af3d 2f3d d124 283d 9b19 293c 4c1f 6a3d

encoder.4.bias f4 [128]
0.050431535 -0.085250154 0.013980059 -0.08353332 0.08680908 0.06713866 0.029531522 -0.008770205
0.030672684 0.09617343 -0.077308506 0.068632685 -0.003125432 -0.019030984 0.09928711 0.04192771
-0.08760078 -0.036608275 0.038145036 -0.05471176 -0.06971084 -0.061192866 0.056084555 -0.0059425794
-0.06035145 0.03976994 0.040395793 0.06695313 -0.017107422 -0.050335918 0.017607678 0.008671774
0.0823182 0.058539476 -0.044893842 0.06754277 0.018417649 -0.025395188 -0.004863633 -0.044713125
0.06832225 0.056933682 -0.013602474 0.091140874 0.06954725 0.08039111 -0.016089093 0.006598519
-0.08635594 -0.05908676 0.06847384 -0.013561001 0.049426798 -0.048362482 0.07954772 0.09412915
-0.04090256 0.07519117 0.087001644 -0.048739716 0.04416786 -0.083178155 -0.010631448 0.021347834
0.097310804 0.059726723 -0.04660231 0.011305991 -0.058918323 0.023188382 -0.07828564 0.03630325
0.035533268 0.016891317 0.033263423 0.0807023 0.014588412 0.064812854 0.051266927 -0.05800758
-0.08168235 0.0135596935 -0.02149445 0.007750596 -0.010122497 0.029174238 -0.08349031 -0.015486818
-0.019252691 0.10502667 0.032094866 0.010078615 -0.045772973 -0.065006286 -0.0780556 -0.04738589
-0.079841524 0.05617489 0.103798196 -0.005360746 -0.0005429146 0.06804891 -0.027517421 0.018622173
-0.056779012 0.09650063 -0.0030037411 0.016529977 -0.0859573 0.013499751 -0.016034715 -0.05481694
-0.08566641 -0.040441353 0.080727786 -0.0069868783 0.0035440845 0.0916896 0.060783964 0.08695433
0.0917465 0.0057188002 0.014332082 0.080427796 -0.043253254 0.009610601 -0.012675306 0.021022247
00000000: 4c91 4e3d a297 aebd 9e0c 653c 8413 abbd
00000010: f5c8 b13d fe7f 893d 17ec f13c e8b0 0fbc
00000020: 4845 fb3c 93f6 c43d ec53 9ebd 4b8f 8c3d
00000030: 0cd4 4cbb dee6 9bbc 0a57 cb3d 64bc 2b3d
00000040: 0a68 b3bd 8ff2 15bd f83d 1c3d 7019 60bd
00000050: 8fc4 8ebd 5fa5 7abd ebb8 653d f8b9 c2bb
00000060: 1533 77bd cee5 223d 0f76 253d b91e 893d
00000070: dd24 8cbc 092d 4ebd fa3d 903c 0e14 0e3c
00000080: 7296 a83d 17c7 6f3d 9be2 37bd dd53 8a3d
00000090: 9ce0 963c 9209 d0bc 1c5f 9fbb 1c25 37bd
000000a0: 89ec 8b3d 4b33 693d e9dc 5ebc 11a8 ba3d
000000b0: ca6e 8e3d 18a4 a43d 46cd 83bc 6438 d83b
000000c0: 62db b0bd f504 72bd 033c 8c3d f62e 5ebc
000000d0: c173 4a3d bd17 46bd eae9 a23d c9c6 c03d
000000e0: 7189 27bd d4fd 993d eb2d b23d 4ca3 47bd
000000f0: 5ce9 343d 4f59 aabd 862f 2ebc a7e1 ae3c
00000100: e34a c73d 02a4 743d 10e2 3ebd c33c 393c
00000110: 5754 71bd 90f5 bd3c 3954 a0bd b7b2 143d
00000120: 558b 113d a95f 8a3c 3a3f 083d 3f47 a53d
00000130: 3c04 6f3c 9abc 843d 45fd 513d 5b99 6dbd
00000140: 1349 a7bd 7a29 5e3c 2115 b0bc b6f8 fd3b
00000150: d4d8 25bc d0fe ee3c f8fc aabd 6cbc 7dbc
00000160: d2b7 9dbc 3918 d73d e875 033d c620 253c
00000170: 717c 3bbd 0422 85bd 9ddb 9fbd b517 42bd
00000180: f483 a3bd a417 663d 2694 d43d 32a9 afbb
00000190: 6252 0eba 3a5d 8b3d 376c e1bc 878d 983c
000001a0: 1c91 68bd 1fa2 c53d 6ada 44bb e069 873c
000001b0: 620a b0bd 0f2e 5d3c 3c5b 83bc ba87 60bd
000001c0: df71 afbd d5a5 25bd 9c54 a53d 2ff2 e4bb
000001d0: df43 683b c2c7 bb3d 9bf8 783d 1d15 b23d
000001e0: 97e5 bb3d c664 bb3b 1cd1 6a3c 54b7 a43d
000001f0: 532a 31bd c875 1d3c 16ac 4fbc d936 ac3c

encoder.6.weight f4 [128, 128]
0.03308052 -0.04056515 0.040778246 0.005411887 0.008732844 0.07776333 0.07308034 0.014048306
-0.07088868 -0.067317136 -0.04611425 -0.068471506 0.08836314 0.020718474 -0.05624445 -0.0001102077
0.02650826 -0.017613417 -0.016385125 -0.0405657 0.07572604 0.026441257 0.09227203 0.014412928
0.051121302 -0.0653916 0.038030006 -0.04136249 0.07813995 -0.048122343 -0.06499492 -0.048349857
-0.05871381 -0.06570569 -0.06843373 0.0860315 -0.00988621 0.018545955 0.1017772 -0.04101952
-0.008724164 -0.050110593 0.06399685 -0.0647991 -0.04332632 0.0016611892 0.015917983 0.07561403
-0.023865411 -0.0049083256 0.046619143 0.041578602 0.102567285 0.08390651 -0.051404446 0.06314268
0.07241212 -0.07921529 0.060074463 -0.043917235 0.043546733 0.027419101 -0.0108866785 -0.002853628
-0.03891516 -0.05429656 0.040385984 0.026260564 -0.058265142 -0.05676336 0.031554654 0.059440117
0.08479657 -0.04506979 -0.032449655 -0.031859446 0.03513549 -0.06960902 -0.06384358 -0.0039889
-0.0327811 0.060242526 -0.035454836 0.013587516 -0.047212962 0.07189545 0.074072495 0.02802001
0.033323046 -0.06390576 -0.05600516 0.010011379 0.012247359 0.03146538 0.026968965 -0.0048285853
0.039370805 -0.0101090465 0.064317025 -0.052198548 0.06881981 0.07714776 0.014996879 0.060769845
-0.042230405 0.014492103 -0.011226052 0.013042402 -0.031621788 0.080001295 -0.037228752 0.028449154
0.048117075 0.07660932 0.0836475 -0.03610397 -0.0029879324 0.07708202 0.023541711 0.044213403
0.04311062 -0.08343287 0.056948345 0.07811096 0.04206539 -0.022045625 -0.019295227 -0.031477246
0.01478179 0.040367946 -0.0653244 0.0039612767 -0.021815272 0.050596595 -0.02108374 -0.06096006
0.05001033 -0.04599357 -0.011596111 -0.033157267 0.03076988 -0.02791292 0.022085536 -0.06694176
-0.011425853 0.07761767 -0.0530165 -0.016637934 -0.0058915815 0.008053948 -0.043747753 0.025153428
-0.024981627 0.004143256 0.08112787 0.06964639 -0.03197184 -0.05776403 -0.054366462 -0.021183398
-0.0039605265 0.018425576 -0.032306843 0.035721455 -0.00415568 0.017675629 0.07627282 -0.002229503
-0.0056338706 -0.03262612 0.063457124 -0.083250605 -0.050523162 0.0054395352 0.049461752 -0.09452427
-0.013738386 0.011283226 0.070817284 0.040755168 0.06956512 -0.023753505 -0.09296217 0.0006955475
0.050713576 -0.0020239213 0.006021722 0.0787241 -0.08261922 0.017646084 0.026777431 0.008449945
-0.031065153 -0.03741922 0.042991836 0.013777963 0.024645064 -0.011331435 -0.061735306 0.029859113
-0.051807363 -0.06036277 -0.04818505 -0.07833658 -0.06678593 -0.018429229 -0.09538335 0.056326266
-0.07509718 0.024947612 0.03655026 -0.042748783 0.010532243 0.08284958 -0.08966945 -0.004595706
0.059357997 0.073825344 0.019458534 0.07338511 -0.05576304 0.08026725 0.015575902 -0.0567664
0.05301104 0.064998865 -0.08266884 0.038138133 0.016487865 0.07527171 -0.092726566 0.03778195
0.07782118 -0.035309058 0.020946657 -0.08577136 0.021045597 -0.07064691 -0.08420661 0.039612114
0.04809342 0.049062017 0.057897933 -0.030854205 -0.06858404 0.041932344 0.07161022 -0.06719866
-0.08184821 -0.054406974 -0.059231304 0.050221056 -0.081917614 0.021421064 0.0137835685 -0.06282707
00000000: 707f 073d a527 26bd 1707 273d 3356 b13b
00000010: 3414 0f3c 6142 9f3d 25ab 953d de2a 663c
00000020: 162e 91bd 91dd 89bd 4ce2 3cbd ca3a 8cbd
00000030: bcf7 b43d cab9 a93c 9560 66bd 4f1f e7b8
00000040: da27 d93c 034a 90bc 193a 86bc 3828 26bd
00000050: 4116 9b3d 569b d83c 1ef9 bc3d 3424 6c3c
00000060: 9264 513d 08ec 85bd 5ac5 1b3d b76b 29bd
00000070: d707 a03d ef1b 45bd 0e1c 85bd 800a 46bd
00000080: e47d 70bd b490 86bd fc26 8cbd 4831 b03d
00000090: c5f9 21bc b0ed 973c 9170 d03d 1604 28bd
000000a0: ccef 0ebc c440 4dbd c810 833d 64b5 84bd
000000b0: f076 31bd 43bc d93a 6e66 823c 87db 9a3d
000000c0: 6581 c3bc 05d6 a0bb b7f3 3e3d 534e 2a3d
000000d0: cc0e d23d 2dd7 ab3d 788d 52bd f350 813d
000000e0: ce4c 943d a03b a2bd a410 763d 8fe2 33bd
000000f0: 0f5e 323d 069e e03c 0a5e 32bc ef03 3bbb
00000100: 8165 1fbd 1266 5ebd c66b 253d 6520 d73c
00000110: 6ea7 6ebd b280 68bd 743f 013d 7b77 733d
00000120: d3a9 ad3d 1a9b 38bd eee9 04bd 0d7f 02bd
00000130: 3bea 0f3d 2d8f 8ebd 6cc0 82bd 52b5 82bb
00000140: 7a45 06bd dec0 763d 1739 11bd 2c9e 5e3c
00000150: 6162 41bd ec3d 933d 52b3 973d 388a e53c
00000160: bf7d 083d 06e1 82bd ab65 65bd c406 243c
00000170: 26a9 483c d8e1 003d 05ee dc3c 1c39 9ebb
00000180: 4843 213d 6aa0 25bc a5b8 833d 25ce 55bd
00000190: 67f1 8c3d a5ff 9d3d 78b5 753c cde9 783d
000001a0: caf9 2cbd 4970 6d3c 7aed 37bc cdaf 553c
000001b0: d985 01bd b8d7 a33d 2d7d 18bd 330e e93c
000001c0: 6916 453d 59e5 9c3d 614f ab3d c2e1 13bd
000001d0: 30d1 43bb 2edd 9d3d 8cda c03c 1d19 353d
000001e0: c394 303d dade aabd ab42 693d a4f8 9f3d
000001f0: c24c 2c3d 0799 b4bc 0611 9ebc 49ee 00bd
00000200: 522f 723c dc58 253d cdc8 85bd 99cd 813b
00000210: f1b5 b2bc 603e 4f3d cfb7 acbc 42b1 79bd
00000220: a2d7 4c3d c163 3cbd 9dfd 3dbc eacf 07bd
00000230: 1e11 fc3c a3a9 e4bc baec b43c c318 89bd
00000240: 8033 3bbc 03f6 9e3d d427 59bd 474c 88bc
00000250: 2b0e c1bb b5f4 033c d830 33bd 900e ce3c
00000260: 45a6 ccbc 27c4 873b 5e26 a63d c4a2 8e3d
00000270: e7f4 02bd fa99 6cbd 5eaf 5ebd ce88 adbc
00000280: 4ec7 81bb 3cf1 963c 2e54 04bd a950 123d
00000290: 5f2c 88bb 7bcc 903c ed34 9c3d da1c 12bb
000002a0: 559c b8bb f7a2 05bd cff5 813d 4b7f aabd
000002b0: 60f1 4ebd 213e b23b 6898 4a3d f195 c1bd
000002c0: f816 61bc 48dd 383c a708 913d e4ee 263d
000002d0: 2878 8e3d b696 c2bc f362 bebd 6755 363a
000002e0: 0ab9 4f3d c4a3 04bb de51 c53b 1a3a a13d
000002f0: 4434 a9bd 858e 903c 585c db3c a371 0a3c
00000300: 597c febc e544 19bd 3518 303d f7bc 613c
00000310: 72e4 c93c 7ca7 39bc 29de 7cbd 199b f43c
00000320: f533 54bd f43e 77bd b05d 45bd ee6e a0bd
00000330: 10c7 88bd e5f8 96bc 5958 c3bd 5fb6 663d
00000340: 8dcc 99bd ef5e cc3c bab5 153d 5919 2fbd
00000350: 6e8f 2c3c 0aad a93d 9ea4 b7bd 9397 96bb
00000360: 5f21 733d be31 973d 8167 9f3c ef4a 963d
00000370: c967 64bd 2863 a43d 1132 7f3c e283 68bd
00000380: 1b22 593d 201e 853d 484e a9bd bb36 1c3d
00000390: 8f11 873c 0e28 9a3d 6de7 bdbd 3fc1 1a3d
000003a0: b660 9f3d 3ba0 10bd 5398 ab3c e5a8 afbd
000003b0: d167 ac3c 54af 90bd 8474 acbd 5040 223d
000003c0: 9bfd 443d 41f5 483d 6226 6d3d f5c1 fcbc
000003d0: ca75 8cbd 40c1 2b3d 61a8 923d 739f 89bd
000003e0: 09a0 a7bd d9d9 5ebd 869c 72bd 98b4 4d3d
000003f0: 6cc4 a7bd 3a7b af3c 7ad4 613c 7bab 80bd

encoder.6.bias f4 [128]
0.050234538 -0.09195329 0.01609085 0.0746248 0.07417109 -0.013421824 0.043670118 -0.057393435
-0.09685138 -0.0733701 -0.054780774 -0.101783186 0.050132208 0.0029558046 -0.05133608 -0.062969856
0.0073530492 -0.04076658 -0.04636889 0.0020596215 -0.10123 -0.036477994 0.10638303 0.08767642
0.023268567 -0.06880547 0.01058124 -0.05588099 -0.09039768 -0.038407344 -0.07765772 0.06729426
-0.091032304 0.007460965 -0.008028349 -0.06286204 -0.020356657 0.05710359 -0.055424526 0.07018495
-0.016409671 -0.07036268 -0.018849436 -0.013397491 0.0046553644 -0.04620743 0.013825708 0.025366213
0.064817384 -0.06510635 0.013809497 0.08181273 -0.010968464 -0.0055538197 0.062819555 -0.10317064
-0.084936015 0.10963004 0.007230254 0.017450906 -0.112884775 -0.077837676 -0.016036509 -0.03498507
0.036457706 -0.058959775 0.016709978 -0.028612051 -0.051718287 0.08057881 0.009503346 -0.07792472
0.046445567 0.042163637 -0.047285076 -0.10666951 0.036298748 0.031035002 0.030653536 0.022600986
0.032244984 -0.08282501 -0.0803348 0.0057585435 0.04767965 -0.029812215 -0.03408713 0.055880457
0.037202615 -0.08755483 0.093708806 0.06895305 0.09281675 -0.009265581 0.021969123 -0.0060614413
0.068616755 0.04436869 -0.017363505 0.07231552 -0.0133434925 -0.04981608 0.04123895 0.025686167
0.06652248 0.020089388 0.09660305 0.064708084 0.02888603 -0.09845404 -0.042142555 0.048475888
0.08194084 0.012021447 0.035854742 0.052912924 -0.04653133 -0.028612284 -0.038710143 -0.059024002
-0.010292384 -0.06157265 -0.031603955 -0.08341511 0.068547726 -0.08490241 -0.015054182 0.0036500269
00000000: bbc2 4d3d 0252 bcbd f5d0 833c e3d4 983d
00000010: 03e7 973d 36e7 5bbc 70df 323d 6115 6bbd
00000020: 045a c6bd 1043 96bd ce61 60bd b473 d0bd
00000030: 6e57 4d3d 2cb6 413b c845 52bd 57f6 80bd
00000040: d9f1 f03b dbfa 26bd 4eed 3dbd b7fa 063b
00000050: ad51 cfbd f369 15bd 59df d93d b28f b33d
00000060: b99d be3c e2e9 8cbd f05c 2d3c 77e3 64bd
00000070: 6b22 b9bd 0551 1dbd 030b 9fbd 93d1 893d
00000080: 256f babd 1c7b f43b 5689 03bc d0bd 80bd
00000090: 01c3 a6bc 74e5 693d d404 63bd 21bd 8f3d
000000a0: 936d 86bc 4f1a 90bd 226a 9abc 2681 5bbc
000000b0: 078c 983b 0144 3dbd 3985 623c cecc cf3c
000000c0: fabe 843d 7a56 85bd 3a41 623c 6f8d a73d
000000d0: 13b5 33bc d1fc b5bb 8aa7 803d 214b d3bd
000000e0: eff2 adbd b785 e03d c4eb ec3b 34f5 8e3c
000000f0: 2230 e7bd 5c69 9fbd ff5e 83bc 814c 0fbd
00000100: ad54 153d ce7f 71bd 5de3 883c d263 eabc
00000110: 8ed6 53bd 8106 a53d ecb3 1b3c ff96 9fbd
00000120: b53d 3e3d c7b3 2c3d ffad 41bd 8b75 dabd
00000130: ffad 143d 1e3d fe3c 201d fb3c b425 b93c
00000140: 5113 043d 29a0 a9bd 9286 a4bd 2ab2 bc3b
00000150: bd4b 433d bf38 f4bc f29e 0bbd e8e2 643d
00000160: c561 183d f24f b3bd 67ea bf3d 4237 8d3d
00000170: b516 be3d aace 17bc 97f8 b33c 0e9f c6bb
00000180: f186 8c3d f2bb 353d e93d 8ebc 291a 943d
00000190: aa9e 5abc f20b 4cbd 2cea 283d cc6b d23c
000001a0: f03c 883d 8092 a43c d2d7 c53d ac85 843d
000001b0: 65a2 ec3c 46a2 c9bd ac9d 2cbd a78e 463d
000001c0: 99d0 a73d 9af5 443c 6cdc 123d 39bb 583d
000001d0: a397 3ebd 4f64 eabc 878e 1ebd 27c3 71bd
000001e0: 63a1 28bc 9a33 7cbd 2673 01bd 8bd5 aabd
000001f0: c062 8c3d 51e1 adbd d1a5 76bc 4a35 6f3b

query.0.weight f4 [128, 130]
-0.057445444 0.07891835 0.046093162 0.021883437 0.03960936 -0.06426724 -0.05150675 -0.06468756
0.08015265 -0.05846205 -0.03565761 -0.015950609 -0.008382041 -0.06113252 -0.03383272 0.04229565
0.050437663 0.023162749 0.016257742 -0.020966308 0.040234823 -0.037699204 -0.06250259 -0.091301635
0.067972705 0.035139907 0.08287237 -0.028506247 -0.02522749 0.05428189 -0.06521989 -0.053131323
0.05940084 0.026875658 -0.07307354 0.03401002 -0.07579932 -0.044148076 0.032095056 -0.010059371
0.050728787 -0.02034571 0.050788835 -0.060704414 0.03276552 0.01723973 -0.070165284 -0.04990187
-0.016232712 0.06517468 0.061780892 -0.021186389 0.03568088 -0.079558216 -0.01904595 -0.04035067
-0.05528145 -0.054108184 -0.020217134 -0.028914843 -0.0527841 0.04081543 0.06256653 -0.0062124543
0.03263708 0.02066555 -0.08021483 -0.009462585 -0.0069595072 -0.07253698 -0.07767978 0.0518761
-0.033665966 0.028294915 -0.07299873 0.01979749 -0.0700242 0.03247821 -0.014247946 -0.035074882
0.017789513 -0.044422664 -0.011214372 0.056885503 -0.021177238 -0.0137881255 -0.08707734 -0.0075904694
-0.0364408 -0.049248658 0.028127419 -0.074369214 0.008867965 -0.013171819 0.051084865 0.03132957
0.050506044 -0.057363722 0.073317066 0.028212432 -0.09277686 0.019165548 -0.043791518 -0.025836816
0.02206986 -0.027089516 -0.019710023 0.011783702 -0.05246618 0.07359076 -0.00070924294 0.037954636
-0.028440818 -0.037170537 -0.079010904 -0.03577045 0.022012357 -0.051973592 0.06691079 -0.016706668
-0.0001869079 0.012536402 0.08939273 -0.081214 -0.016290532 0.08901729 -0.043891564 -0.08944968
-0.09050563 -0.051958792 -0.054474067 0.02068609 -0.06050238 0.04091316 0.061640006 -0.036900178
-0.01092798 -0.013209075 0.03962551 -0.05508075 0.019339902 -0.016117627 -0.0674986 0.052561816
-0.060482495 -0.02638899 0.007388981 -0.025867414 0.050468143 0.06729996 0.033085745 0.022248255
-0.07769547 -0.056109723 -0.07715231 0.038753305 0.0456751 -0.045658078 0.0049046655 0.004954297
-0.024313249 -0.018016338 0.031802036 0.044793032 -0.034673586 -0.042686146 -0.009793011 -0.018149028
0.031505 0.059165057 -0.06858843 -0.036008913 -0.010782755 -0.012034417 0.0023616431 -0.05166894
0.023364939 0.0735473 0.08174825 0.06298269 -0.0428699 -0.0023818847 0.025580708 -0.053005856
-0.076206155 0.054433167 -0.027608229 0.0796568 -0.024447067 0.041910537 -0.062803686 0.07092738
0.07997215 -0.055976447 -0.04814645 0.044846993 -0.00039666536 0.08041275 0.047755588 -0.048168123
0.025673917 -0.066471554 -0.015668413 0.052642144 0.08060456 -0.029187499 0.078618295 0.009741298
0.060172502 -0.01899017 -0.058080982 -0.0339725 0.010597194 -0.068088 0.038840815 -0.01350494
-0.07028228 -0.062357835 -0.08611898 -0.02824888 -0.06868603 -0.044020414 0.06679538 -0.057884097
-0.026930472 0.05929097 0.048649 0.03258183 -0.06704369 -0.026661644 0.027665002 0.05169211
0.01898901 0.084074795 -0.027866937 0.080489874 -0.04487516 0.013323279 0.07798503 -0.067008436
-0.051875766 -0.037755247 -0.06957637 0.043869954 -0.07988668 0.081890434 0.037254207 -0.009669114
-0.076939754 -0.011029637 0.053031646 0.041642923 -0.039915167 -0.00940197 -0.06678367 -0.02045511
00000000: ea4b 6bbd f29f a13d 2fcc 3c3d e544 b33c
00000010: 6d3d 223d 8b9e 83bd bef8 52bd e97a 84bd
00000020: 1327 a43d e775 6fbd b70d 12bd daaa 82bc
00000030: d454 09bc 1866 7abd 2e94 0abd 343e 2d3d
00000040: b997 4e3d cebf bd3c f52e 853c 89c1 abbc
00000050: 45cd 243d 7b6a 1abd 5c01 80bd 5afc babd
00000060: 4635 8b3d ddee 0f3d fdb8 a93d ef85 e9bc
00000070: e2a9 cebc b056 5e3d 0192 85bd 3ba0 59bd
00000080: 4c4e 733d 572a dc3c 95a7 95bd 174e 0b3d
00000090: ad3c 9bbd 9dd4 34bd 1b76 033d 0fd0 24bc
000000a0: fdc8 4f3d 0cac a6bc f407 503d 31a5 78bd
000000b0: 2335 063d 563a 8d3c d1b2 8fbd e765 4cbd
000000c0: 77fa 84bc 4d7a 853d f60d 7d3d 148f adbc
000000d0: 1d26 123d 6bef a2bd 4106 9cbc bf46 25bd
000000e0: cd6e 62bd 8ba0 5dbd 679e a5bc d2de ecbc
000000f0: 2434 58bd 152e 273d e222 803d d891 cbbb
00000100: 75ae 053d cd4a a93c ac47 a4bd f508 1bbc
00000110: 940c e4bb 458e 94bd 9416 9fbd 097c 543d
00000120: 53e5 09bd bdca e73c 5c80 95bd 592e a23c
00000130: d968 8fbd df07 053d 3870 69bc aeaa 0fbd
00000140: 50bb 913c 8af4 35bd 7cbc 37bc c600 693d
00000150: e37b adbc 97e7 61bc 9b55 b2bd 79b9 f8bb
00000160: f342 15bd f6b8 49bd 796b e63c e34e 98bd
00000170: f14a 113c 9dce 57bc 5d3e 513d 6f53 003d
00000180: 6ddf 4e3d 39f6 6abd 4227 963d c21d e73c
00000190: cb01 bebd 1101 9d3c bc5e 33bd bba7 d3bc
000001a0: dacb b43c d5ea ddbc ea76 a1bc 6e10 413c
000001b0: c7e6 56bd c1b6 963d 7dec 39ba 5276 1b3d
000001c0: b8fc e8bc 2240 18bd 78d0 a1bd 0984 12bd
000001d0: 4253 b43c 43e2 54bd 8608 893d 6cdc 88bc
000001e0: b5fc 43b9 7b65 4d3c 8913 b73d 8753 a6bd
000001f0: b973 85bc b24e b63d a4c7 33bd 6531 b7bd
00000200: 045b b9bd bed2 54bd 3320 5fbd e075 a93c
00000210: 58d1 77bd 8f94 273d 3b7a 7c3d a424 17bd
00000220: 450b 33bc e06a 58bc 5c4e 223d 5a9c 61bd
00000230: b76e 9e3c 1d09 84bc b53c 8abd 0f4b 573d
00000240: 7ebc 77bd b92d d8bc 441f f23b e6e7 d3bc
00000250: afb7 4e3d 90d4 893d eb84 073d f941 b63c
00000260: cd1e 9fbd 4fd3 65bd 0802 9ebd c9bb 1e3d
00000270: d015 3b3d f703 3bbd 51b7 a03b a857 a23b
00000280: 942c c7bc 0097 93bc da42 023d e678 373d
00000290: e405 0ebd abd7 2ebd dd72 20bc 45ad 94bc
000002a0: 630b 013d 0f57 723d 1778 8cbd 157e 13bd
000002b0: 27aa 30bc 012c 45bc ccc5 1a3b cfa2 53bd
000002c0: d467 bf3c f89f 963d a06b a73d 12fd 803d
000002d0: 5998 2fbd 6519 1cbb a28e d13c ab1c 59bd
000002e0: f911 9cbd 50f5 5e3d a72a e2bc 1b23 a33d
000002f0: 3745 c8bc 62aa 2b3d 389f 80bd 6042 913d
00000300: 70c8 a33d 8f47 65bd 3635 45bd 7bb1 373d
00000310: 86f7 cfb9 71af a43d 5d9b 433d f04b 45bd
00000320: 1b52 d23c 3d22 88bd 0b5b 80bc 4a9f 573d
00000330: 0114 a53d 9f1a efbc a102 a13d f799 1f3c
00000340: 7177 763d 4691 9bbc 53e6 6dbd c026 0bbd
00000350: da9f 2d3c b971 8bbd 8c17 1f3d d343 5dbc
00000360: 28f0 8fbd ee6a 7fbd 265f b0bd 326a e7bc
00000370: 43ab 8cbd c04e 34bd 04cc 883d e017 6dbd
00000380: 4b9d dcbc 17db 723d 2c44 473d 8674 053d
00000390: 344e 89bd 8569 dabc b7a1 e23c 1bbb 533d
000003a0: d78e 9b3c 682f ac3d 3449 e4bc e0d7 a43d
000003b0: 04cf 37bd e249 5a3c 9eb6 9f3d b83b 89bd
000003c0: af7b 54bd 3fa5 1abd 0e7e 8ebd fbb0 333d
000003d0: a19b a3bd 2cb6 a73d de97 183d 346b 1ebc
000003e0: 9792 9dbd a7b5 34bc b637 593d c591 2a3d
000003f0: 167e 23bd b80a 1abc e0c5 88bd 7a91 a7bc

query.0.bias f4 [128]
-0.037215136 -0.027916579 -0.078278266 -0.06784145 0.0004546923 0.061442144 0.009538527 -0.07295269
-0.0053254385 0.025783068 -0.006273992 0.00026260692 0.028250042 0.036532413 0.10344861 -0.019541794
0.04817555 -0.017545773 -0.055248316 -0.017914243 -0.04217564 0.110010155 -0.06618158 0.052273165
-0.000827687 0.057507332 0.011372955 0.108624995 -0.07976234 -0.07287794 -0.011202506 0.053265844
-0.04599791 0.00142521 -0.036532596 0.044736747 0.021076217 -0.044315007 0.07767795 -0.03333961
0.10167204 0.0025023723 -0.05121307 -0.0053441143 0.018167919 -0.05825325 -0.037688326 -0.011092732
-0.050037414 -0.008411059 -0.0015256564 0.079682425 -0.06842515 -0.062891416 -0.030702848 -0.031383507
-0.062793896 -0.07843734 -0.023402477 -0.032648325 0.025609685 -0.08200288 -0.020321092 0.06264662
0.00812439 -0.08515874 0.033618797 0.059823737 0.083992414 -0.0648682 0.01768787 0.066966236
0.025743214 -0.06436945 0.09193318 0.06901784 -0.08558499 0.09793093 0.042537563 0.024968756
0.012777154 -0.011787065 -0.03637559 0.0029118457 -0.00025444326 -0.046783146 0.009267491 0.029053858
-0.0054350025 0.004992982 0.025296941 0.084947184 -0.03034108 -0.038044482 0.07984901 -0.08060332
0.0034664422 -0.0022288503 0.092394575 -0.03529475 -0.07894853 0.034698907 0.033231433 0.061777383
0.0768167 -0.053130873 -0.068805225 -0.054820955 0.009978339 -0.023759188 0.023730764 -0.044646513
0.0032322267 -0.0026344103 0.029530518 0.04695114 -0.025010202 -0.07048067 0.00039927708 -0.03653948
0.026450453 -0.0126170935 0.03419228 0.059294954 0.07321486 -0.00676859 0.010583906 -0.022574594
00000000: e66e 18bd 4fb1 e4bc 5b50 a0bd 75f0 8abd
00000010: c463 ee39 c2aa 7b3d 7b47 1c3c 3868 95bd
00000020: 0481 aebb 0337 d33c 0f96 cdbb 81ae 8939
00000030: a26c e73c 03a3 153d dddc d33d 1d16 a0bc
00000040: ba53 453d 27bc 8fbc 0f4c 62bd e4c0 92bc
00000050: 5dc0 2cbd 014d e13d 358a 87bd 631c 563d
00000060: 22f9 58ba cf8c 6b3d a155 3a3c c876 de3d
00000070: 705a a3bd 0841 95bd b78a 37bc 492d 5a3d
00000080: 4e68 3cbd 1dce ba3a 34a3 15bd e13d 373d
00000090: 08a8 ac3c a783 35bd 9e15 9f3d 1d8f 08bd
000000a0: 6e39 d03d d7fe 233b ccc4 51bd ae1d afbb
000000b0: e3d4 943c f69a 6ebd 135f 1abd 4abe 35bc
000000c0: 08f4 4cbd 8ace 09bc 89f8 c7ba 8a30 a33d
000000d0: 7c22 8cbd 37cd 80bd 8a84 fbbc fe8b 00bd
000000e0: 169a 80bd c2a3 a0bd 8db6 bfbc 40ba 05bd
000000f0: 67cb d13c 20f1 a7bd 6b78 a6bc df4c 803d
00000100: 291c 053c b567 aebd ddb3 093d bc09 753d
00000110: 3704 ac3d 9ed9 84bd 27e6 903c 9825 893d
00000120: 6fe3 d23c 21d4 83bd 7747 bc3d 3a59 8d3d
00000130: 2f47 afbd 0390 c83d de3b 2e3d 478b cc3c
00000140: 4557 513c 891e 41bc 92fe 14bd aad4 3e3b
00000150: cc66 85b9 af9f 3fbd add6 173c 5b02 ee3c
00000160: 1b18 b2bb 2b9c a33b 883b cf3c caf8 ad3d
00000170: db8d f8bc 88d4 1bbd e187 a33d 5a13 a5bd
00000180: 402d 633b e711 12bb 5e39 bd3d 3a91 10bd
00000190: c4af a1bd 7120 0e3d af1d 083d 480a 7d3d
000001a0: 1352 9d3d c29f 59bd c1e9 8cbd f08b 60bd
000001b0: 307c 233c a1a2 c2bc 0567 c23c 43df 36bd
000001c0: c4d3 533b 12a6 2cbb fce9 f13c d74f 403d
000001d0: 32e2 ccbc 2b58 90bd 1056 d139 6caa 15bd
000001e0: 9fae d83c edb7 4ebc 340d 0c3d 44df 723d
000001f0: acf1 953d 0ccb ddbb 1f68 2d3c 5bee b8bc
